…
      "metadata": {
        "colab": {
          "background_save": true,
          "base_uri": "https://localhost:8080/"
        },
        "id": "D0eUmAZt13-B",
        "outputId": "2d547382-921b-4366-8350-2c822e373d25"
      },
      "outputs": [
        {
          "name": "stdout",
          "output_type": "stream",
          "text": [
            "/bin/bash: cfg.python: command not found\n",
            "\u001b[32m[09/03 00:19:40 d2.engine.defaults]: \u001b[0mModel:\n",
            "GeneralizedRCNN(\n",
            "  (backbone): ResNet(\n",
            "    (stem): BasicStem(\n",
            "      (conv1): Conv2d(\n",
            "        3, 64, kernel_size=(7, 7), stride=(2, 2), padding=(3, 3), bias=False\n",
            "        (norm): FrozenBatchNorm2d(num_features=64, eps=1e-05)\n",
            "      )\n",
            "    )\n",
            "    (res2): Sequential(\n",
            "      (0): BottleneckBlock(\n",
            "        (shortcut): Conv2d(\n",
            "          64, 256, kernel_size=(1, 1), stride=(1, 1), bias=False\n",
            "          (norm): FrozenBatchNorm2d(num_features=256, eps=1e-05)\n",
            "        )\n",
            "        (conv1): Conv2d(\n",
            "          64, 64, kernel_size=(1, 1), stride=(1, 1), bias=False\n",
            "          (norm): FrozenBatchNorm2d(num_features=64, eps=1e-05)\n",
            "        )\n",
            "        (conv2): Conv2d(\n",
            "          64, 64, kernel_size=(3, 3), stride=(1, 1), padding=(1, 1), bias=False\n",
            "          (norm): FrozenBatchNorm2d(num_features=64, eps=1e-05)\n",
            "        )\n",
            "        (conv3): Conv2d(\n",
            "          64, 256, kernel_size=(1, 1), stride=(1, 1), bias=False\n",
            "          (norm): FrozenBatchNorm2d(num_features=256, eps=1e-05)\n",
            "        )\n",
            "      )\n",
            "      (1): BottleneckBlock(\n",
            "        (conv1): Conv2d(\n",
            "          256, 64, kernel_size=(1, 1), stride=(1, 1), bias=False\n",
            "          (norm): FrozenBatchNorm2d(num_features=64, eps=1e-05)\n",
            "        )\n",
            "        (conv2): Conv2d(\n",
            "          64, 64, kernel_size=(3, 3), stride=(1, 1), padding=(1, 1), bias=False\n",
            "          (norm): FrozenBatchNorm2d(num_features=64, eps=1e-05)\n",
            "        )\n",
            "        (conv3): Conv2d(\n",
            "          64, 256, kernel_size=(1, 1), stride=(1, 1), bias=False\n",
            "          (norm): FrozenBatchNorm2d(num_features=256, eps=1e-05)\n",
            "        )\n",
            "      )\n",
            "      (2): BottleneckBlock(\n",
            "        (conv1): Conv2d(\n",
            "          256, 64, kernel_size=(1, 1), stride=(1, 1), bias=False\n",
            "          (norm): FrozenBatchNorm2d(num_features=64, eps=1e-05)\n",
            "        )\n",
            "        (conv2): Conv2d(\n",
            "          64, 64, kernel_size=(3, 3), stride=(1, 1), padding=(1, 1), bias=False\n",
            "          (norm): FrozenBatchNorm2d(num_features=64, eps=1e-05)\n",
            "        )\n",
            "        (conv3): Conv2d(\n",
            "          64, 256, kernel_size=(1, 1), stride=(1, 1), bias=False\n",
            "          (norm): FrozenBatchNorm2d(num_features=256, eps=1e-05)\n",
            "        )\n",
            "      )\n",
            "    )\n",
            "    (res3): Sequential(\n",
            "      (0): BottleneckBlock(\n",
            "        (shortcut): Conv2d(\n",
            "          256, 512, kernel_size=(1, 1), stride=(2, 2), bias=False\n",
            "          (norm): FrozenBatchNorm2d(num_features=512, eps=1e-05)\n",
            "        )\n",
            "        (conv1): Conv2d(\n",
            "          256, 128, kernel_size=(1, 1), stride=(2, 2), bias=False\n",
            "          (norm): FrozenBatchNorm2d(num_features=128, eps=1e-05)\n",
            "        )\n",
            "        (conv2): Conv2d(\n",
            "          128, 128, kernel_size=(3, 3), stride=(1, 1), padding=(1, 1), bias=False\n",
            "          (norm): FrozenBatchNorm2d(num_features=128, eps=1e-05)\n",
            "        )\n",
            "        (conv3): Conv2d(\n",
            "          128, 512, kernel_size=(1, 1), stride=(1, 1), bias=False\n",
            "          (norm): FrozenBatchNorm2d(num_features=512, eps=1e-05)\n",
            "        )\n",
            "      )\n",
            "      (1): BottleneckBlock(\n",
            "        (conv1): Conv2d(\n",
            "          512, 128, kernel_size=(1, 1), stride=(1, 1), bias=False\n",
            "          (norm): FrozenBatchNorm2d(num_features=128, eps=1e-05)\n",
            "        )\n",
            "        (conv2): Conv2d(\n",
            "          128, 128, kernel_size=(3, 3), stride=(1, 1), padding=(1, 1), bias=False\n",
            "          (norm): FrozenBatchNorm2d(num_features=128, eps=1e-05)\n",
            "        )\n",
            "        (conv3): Conv2d(\n",
            "          128, 512, kernel_size=(1, 1), stride=(1, 1), bias=False\n",
            "          (norm): FrozenBatchNorm2d(num_features=512, eps=1e-05)\n",
            "        )\n",
            "      )\n",
            "      (2): BottleneckBlock(\n",
            "        (conv1): Conv2d(\n",
            "          512, 128, kernel_size=(1, 1), stride=(1, 1), bias=False\n",
            "          (norm): FrozenBatchNorm2d(num_features=128, eps=1e-05)\n",
            "        )\n",
            "        (conv2): Conv2d(\n",
            "          128, 128, kernel_size=(3, 3), stride=(1, 1), padding=(1, 1), bias=False\n",
            "          (norm): FrozenBatchNorm2d(num_features=128, eps=1e-05)\n",
            "        )\n",
            "        (conv3): Conv2d(\n",
            "          128, 512, kernel_size=(1, 1), stride=(1, 1), bias=False\n",
            "          (norm): FrozenBatchNorm2d(num_features=512, eps=1e-05)\n",
            "        )\n",
            "      )\n",
            "      (3): BottleneckBlock(\n",
            "        (conv1): Conv2d(\n",
            "          512, 128, kernel_size=(1, 1), stride=(1, 1), bias=False\n",
            "          (norm): FrozenBatchNorm2d(num_features=128, eps=1e-05)\n",
            "        )\n",
            "        (conv2): Conv2d(\n",
            "          128, 128, kernel_size=(3, 3), stride=(1, 1), padding=(1, 1), bias=False\n",
            "          (norm): FrozenBatchNorm2d(num_features=128, eps=1e-05)\n",
            "        )\n",
            "        (conv3): Conv2d(\n",
            "          128, 512, kernel_size=(1, 1), stride=(1, 1), bias=False\n",
            "          (norm): FrozenBatchNorm2d(num_features=512, eps=1e-05)\n",
            "        )\n",
            "      )\n",
            "    )\n",
            "    (res4): Sequential(\n",
            "      (0): BottleneckBlock(\n",
            "        (shortcut): Conv2d(\n",
            "          512, 1024, kernel_size=(1, 1), stride=(2, 2), bias=False\n",
            "          (norm): FrozenBatchNorm2d(num_features=1024, eps=1e-05)\n",
            "        )\n",
            "        (conv1): Conv2d(\n",
            "          512, 256, kernel_size=(1, 1), stride=(2, 2), bias=False\n",
            "          (norm): FrozenBatchNorm2d(num_features=256, eps=1e-05)\n",
            "        )\n",
            "        (conv2): Conv2d(\n",
            "          256, 256, kernel_size=(3, 3), stride=(1, 1), padding=(1, 1), bias=False\n",
            "          (norm): FrozenBatchNorm2d(num_features=256, eps=1e-05)\n",
            "        )\n",
            "        (conv3): Conv2d(\n",
            "          256, 1024, kernel_size=(1, 1), stride=(1, 1), bias=False\n",
            "          (norm): FrozenBatchNorm2d(num_features=1024, eps=1e-05)\n",
            "        )\n",
            "      )\n",
            "      (1): BottleneckBlock(\n",
            "        (conv1): Conv2d(\n",
            "          1024, 256, kernel_size=(1, 1), stride=(1, 1), bias=False\n",
            "          (norm): FrozenBatchNorm2d(num_features=256, eps=1e-05)\n",
            "        )\n",
            "        (conv2): Conv2d(\n",
            "          256, 256, kernel_size=(3, 3), stride=(1, 1), padding=(1, 1), bias=False\n",
            "          (norm): FrozenBatchNorm2d(num_features=256, eps=1e-05)\n",
            "        )\n",
            "        (conv3): Conv2d(\n",
            "          256, 1024, kernel_size=(1, 1), stride=(1, 1), bias=False\n",
            "          (norm): FrozenBatchNorm2d(num_features=1024, eps=1e-05)\n",
            "        )\n",
            "      )\n",
            "      (2): BottleneckBlock(\n",
            "        (conv1): Conv2d(\n",
            "          1024, 256, kernel_size=(1, 1), stride=(1, 1), bias=False\n",
            "          (norm): FrozenBatchNorm2d(num_features=256, eps=1e-05)\n",
            "        )\n",
            "        (conv2): Conv2d(\n",
            "          256, 256, kernel_size=(3, 3), stride=(1, 1), padding=(1, 1), bias=False\n",
            "          (norm): FrozenBatchNorm2d(num_features=256, eps=1e-05)\n",
            "        )\n",
            "        (conv3): Conv2d(\n",
            "          256, 1024, kernel_size=(1, 1), stride=(1, 1), bias=False\n",
            "          (norm): FrozenBatchNorm2d(num_features=1024, eps=1e-05)\n",
            "        )\n",
            "      )\n",
            "      (3): BottleneckBlock(\n",
            "        (conv1): Conv2d(\n",
            "          1024, 256, kernel_size=(1, 1), stride=(1, 1), bias=False\n",
            "          (norm): FrozenBatchNorm2d(num_features=256, eps=1e-05)\n",
            "        )\n",
            "        (conv2): Conv2d(\n",
            "          256, 256, kernel_size=(3, 3), stride=(1, 1), padding=(1, 1), bias=False\n",
            "          (norm): FrozenBatchNorm2d(num_features=256, eps=1e-05)\n",
            "        )\n",
            "        (conv3): Conv2d(\n",
            "          256, 1024, kernel_size=(1, 1), stride=(1, 1), bias=False\n",
            "          (norm): FrozenBatchNorm2d(num_features=1024, eps=1e-05)\n",
            "        )\n",
            "      )\n",
            "      (4): BottleneckBlock(\n",
            "        (conv1): Conv2d(\n",
            "          1024, 256, kernel_size=(1, 1), stride=(1, 1), bias=False\n",
            "          (norm): FrozenBatchNorm2d(num_features=256, eps=1e-05)\n",
            "        )\n",
            "        (conv2): Conv2d(\n",
            "          256, 256, kernel_size=(3, 3), stride=(1, 1), padding=(1, 1), bias=False\n",
            "          (norm): FrozenBatchNorm2d(num_features=256, eps=1e-05)\n",
            "        )\n",
            "        (conv3): Conv2d(\n",
            "          256, 1024, kernel_size=(1, 1), stride=(1, 1), bias=False\n",
            "          (norm): FrozenBatchNorm2d(num_features=1024, eps=1e-05)\n",
            "        )\n",
            "      )\n",
            "      (5): BottleneckBlock(\n",
            "        (conv1): Conv2d(\n",
            "          1024, 256, kernel_size=(1, 1), stride=(1, 1), bias=False\n",
            "          (norm): FrozenBatchNorm2d(num_features=256, eps=1e-05)\n",
            "        )\n",
            "        (conv2): Conv2d(\n",
            "          256, 256, kernel_size=(3, 3), stride=(1, 1), padding=(1, 1), bias=False\n",
            "          (norm): FrozenBatchNorm2d(num_features=256, eps=1e-05)\n",
            "        )\n",
            "        (conv3): Conv2d(\n",
            "          256, 1024, kernel_size=(1, 1), stride=(1, 1), bias=False\n",
            "          (norm): FrozenBatchNorm2d(num_features=1024, eps=1e-05)\n",
            "        )\n",
            "      )\n",
            "    )\n",
            "  )\n",
            "  (proposal_generator): RPN(\n",
            "    (rpn_head): StandardRPNHead(\n",
            "      (conv): Conv2d(\n",
            "        1024, 1024, kernel_size=(3, 3), stride=(1, 1), padding=(1, 1)\n",
            "        (activation): ReLU()\n",
            "      )\n",
            "      (objectness_logits): Conv2d(1024, 15, kernel_size=(1, 1), stride=(1, 1))\n",
            "      (anchor_deltas): Conv2d(1024, 60, kernel_size=(1, 1), stride=(1, 1))\n",
            "    )\n",
            "    (anchor_generator): DefaultAnchorGenerator(\n",
            "      (cell_anchors): BufferList()\n",
            "    )\n",
            "  )\n",
            "  (roi_heads): Res5ROIHeads(\n",
            "    (pooler): ROIPooler(\n",
            "      (level_poolers): ModuleList(\n",
            "        (0): ROIAlign(output_size=(14, 14), spatial_scale=0.0625, sampling_ratio=0, aligned=True)\n",
            "      )\n",
            "    )\n",
            "    (res5): Sequential(\n",
            "      (0): BottleneckBlock(\n",
            "        (shortcut): Conv2d(\n",
            "          1024, 2048, kernel_size=(1, 1), stride=(2, 2), bias=False\n",
            "          (norm): FrozenBatchNorm2d(num_features=2048, eps=1e-05)\n",
            "        )\n",
            "        (conv1): Conv2d(\n",
            "          1024, 512, kernel_size=(1, 1), stride=(2, 2), bias=False\n",
            "          (norm): FrozenBatchNorm2d(num_features=512, eps=1e-05)\n",
            "        )\n",
            "        (conv2): Conv2d(\n",
            "          512, 512, kernel_size=(3, 3), stride=(1, 1), padding=(1, 1), bias=False\n",
            "          (norm): FrozenBatchNorm2d(num_features=512, eps=1e-05)\n",
            "        )\n",
            "        (conv3): Conv2d(\n",
            "          512, 2048, kernel_size=(1, 1), stride=(1, 1), bias=False\n",
            "          (norm): FrozenBatchNorm2d(num_features=2048, eps=1e-05)\n",
            "        )\n",
            "      )\n",
            "      (1): BottleneckBlock(\n",
            "        (conv1): Conv2d(\n",
            "          2048, 512, kernel_size=(1, 1), stride=(1, 1), bias=False\n",
            "          (norm): FrozenBatchNorm2d(num_features=512, eps=1e-05)\n",
            "        )\n",
            "        (conv2): Conv2d(\n",
            "          512, 512, kernel_size=(3, 3), stride=(1, 1), padding=(1, 1), bias=False\n",
            "          (norm): FrozenBatchNorm2d(num_features=512, eps=1e-05)\n",
            "        )\n",
            "        (conv3): Conv2d(\n",
            "          512, 2048, kernel_size=(1, 1), stride=(1, 1), bias=False\n",
            "          (norm): FrozenBatchNorm2d(num_features=2048, eps=1e-05)\n",
            "        )\n",
            "      )\n",
            "      (2): BottleneckBlock(\n",
            "        (conv1): Conv2d(\n",
            "          2048, 512, kernel_size=(1, 1), stride=(1, 1), bias=False\n",
            "          (norm): FrozenBatchNorm2d(num_features=512, eps=1e-05)\n",
            "        )\n",
            "        (conv2): Conv2d(\n",
            "          512, 512, kernel_size=(3, 3), stride=(1, 1), padding=(1, 1), bias=False\n",
            "          (norm): FrozenBatchNorm2d(num_features=512, eps=1e-05)\n",
            "        )\n",
            "        (conv3): Conv2d(\n",
            "          512, 2048, kernel_size=(1, 1), stride=(1, 1), bias=False\n",
            "          (norm): FrozenBatchNorm2d(num_features=2048, eps=1e-05)\n",
            "        )\n",
            "      )\n",
            "    )\n",
            "    (box_predictor): FastRCNNOutputLayers(\n",
            "      (cls_score): Linear(in_features=2048, out_features=3, bias=True)\n",
            "      (bbox_pred): Linear(in_features=2048, out_features=8, bias=True)\n",
            "    )\n",
            "  )\n",
            ")\n",
            "\u001b[32m[09/03 00:32:41 d2.data.build]: \u001b[0mRemoved 2537 images with no usable annotations. 8205 images left.\n",
            "\u001b[32m[09/03 00:32:41 d2.data.dataset_mapper]: \u001b[0m[DatasetMapper] Augmentations used in training: [ResizeShortestEdge(short_edge_length=(800,), max_size=1333, sample_style='choice'), RandomFlip()]\n",
…
